modeling/rnn.pth (torch, 68264 bytes, 23 tensors)

rnn.weight_ih_l0 f4 [8, 1]
0.18892817 -0.25871736 -0.3446151 -0.28655645 -0.14470643 -0.2202181 0.26083738 0.35480326
00000000: 6376 413e 9a76 84be 6471 b0be 87b7 92be
00000010: ec2d 14be db80 61be 7a8c 853e c6a8 b53e

rnn.weight_hh_l0 f4 [8, 8]
0.23780285 0.31689814 0.21444973 -0.23526466 -0.06887121 0.27100345 -0.19478829 -0.24217767
0.096522 0.23086551 0.3480961 0.36926353 -0.26212868 0.3521679 0.16545735 -0.088086896
-0.21423323 0.3797909 -0.07295505 0.26684448 -0.2686349 0.27817026 0.09007313 -0.033391804
0.024283301 0.33072785 0.25384274 0.079558164 0.15817717 0.16343479 0.0047744894 -0.23838703
-0.30367112 -0.18311583 0.3337787 -0.01942712 0.15898174 -0.09473234 0.16106145 -0.015172622
-0.2621798 -0.06638682 -0.22049592 -0.28761572 -0.32822493 0.23483047 -0.29518 -0.053629443
-0.13616309 0.18158439 0.030344494 0.13650298 0.26069602 0.07554797 -0.089319415 0.17308016
0.15910167 0.16296929 -0.32225788 0.014957957 0.19635619 0.1032973 -0.3344787 0.3074853
00000000: 9782 733e 7940 a23e b698 5b3e 38e9 70be
00000010: 590c 8dbd f7c0 8a3e 9576 47be 6cfd 77be
00000020: 54ad c53d 0268 6c3e a739 b23e 1c10 bd3e
00000030: bb35 86be 5a4f b43e a76d 293e e766 b4bd
00000040: f55f 5bbe f473 c23e 7569 95bd d79f 883e
00000050: 838a 89be 556c 8e3e 4378 b83d d8c5 08bd
00000060: c6ed c63c 2955 a93e adf7 813e 64ef a23d
00000070: 32f9 213e 735b 273e 5273 9c3b bb1b 74be
00000080: c87a 9bbe b782 3bbe 0be5 aa3e a025 9fbc
00000090: 1ccc 223e 0703 c2bd 4bed 243e 9796 78bc
000000a0: 6e3c 86be d0f5 87bd afc9 61be 5e42 93be
000000b0: 190d a8be 6677 703e d521 97be 8caa 5bbd
000000c0: 566e 0bbe 42f1 393e 0495 f83c 70c7 0b3e
000000d0: f379 853e e5b8 9a3d 19ed b6bd ed3b 313e
000000e0: 8ceb 223e 6ce1 263e fcfe a4be 3812 753c
000000f0: 9911 493e 898d d33d cb40 abbe b76e 9d3e

rnn.bias_ih_l0 f4 [8]
-0.1458547 0.18308756 0.28887308 -0.02743036 0.163579 0.09267642 0.07226104 -0.2954645
00000000: ef5a 15be 4e7b 3b3e 2ce7 933e a2b5 e0bc
00000010: 4181 273e 23cd bd3d 99fd 933d 1f47 97be

rnn.bias_hh_l0 f4 [8]
0.3013042 0.18316722 -0.14748421 0.28944272 0.26319006 -0.12388934 -0.18994205 0.049711686
00000000: 8b44 9a3e 3090 3b3e 1a06 17be d631 943e
00000010: d9c0 863e b2b9 fdbd 2b80 42be 7b9e 4b3d

rnn.weight_ih_l1 f4 [8, 8]
-0.25569105 0.24470738 0.15803197 0.15559454 0.13932815 -0.16903213 -0.24663824 -0.0067553218
0.086311385 0.08676773 0.06365814 0.049931943 -0.0016208648 -0.32891053 -0.3158713 -0.21640687
-0.14394559 0.014322677 -0.28104848 0.08253179 -0.3127662 0.13988835 -0.10576004 0.2711073
0.109555855 -0.16272566 -0.020209456 -0.06676421 -0.28691345 -0.08115547 0.03793753 0.030883322
0.041298166 0.1640915 -0.053426556 -0.21286553 -0.13755018 -0.17095166 0.32853636 0.25794655
0.29020137 -0.14326282 -0.11261587 -0.29634005 -0.10219475 -0.020502418 -0.0055896873 0.06930543
-0.16013944 0.06779685 -0.016645923 -0.23731016 0.120433256 -0.2671085 0.23204888 0.045043938
0.34027418 0.2957362 0.15935235 -0.1346983 0.10268282 -0.25290105 -0.045458555 -0.091099635
00000000: f0e9 82be 9294 7a3e 22d3 213e 2d54 1f3e
00000010: 0aac 0e3e c216 2dbe bc8e 7cbe bf5b ddbb
00000020: 06c4 b03d 48b3 b13d 335f 823d 7085 4c3d
00000030: 3373 d4ba f666 a8be e2b9 a1be c399 5dbe
00000040: 7966 13be a9a9 6a3c 96e5 8fbe 6d06 a93d
00000050: e422 a0be e43e 0f3e b898 d8bd 93ce 8a3e
00000060: d25e e03d 8ea1 26be 4d8e a5bc adbb 88bd
00000070: 52e6 92be d734 a6bd 6264 1b3d 05ff fc3c
00000080: 4428 293d 9a07 283e ced5 5abd 6cf9 59be
00000090: f4d9 0cbe f40d 2fbe eb35 a83e 9211 843e
000000a0: 4695 943e 7db3 12be 26a3 e6bd e2b9 97be
000000b0: 7b4b d1bd b0f4 a7bc b229 b7bb 01f0 8d3d
000000c0: 98fb 23be 13d9 8a3d 085d 88bc 6f01 73be
000000d0: b6a5 f63d 72c2 88be 399e 6d3e fe7f 383d
000000e0: 6b38 ae3e bc6a 973e 432d 233e 5aee 09be
000000f0: 5f4b d23d 3f7c 81be c032 3abd 7292 babd

rnn.weight_hh_l1 f4 [8, 8]
0.046211045 -0.13418868 -0.16524887 -0.08763415 -0.3322872 0.27135503 -0.24872237 -0.14257807
-0.14717239 -0.23442866 0.30744782 -0.14080112 -0.05841104 -0.0016533454 -0.10118492 0.20711304
-0.17596582 -0.27243292 0.052558072 -0.24468373 -0.19429784 -0.123832054 -0.20542274 -0.10099086
0.10746991 0.25959536 -0.2486388 -0.21340871 -0.17856936 -0.12463226 0.21805283 -0.32592633
0.26055476 0.3256866 0.071629755 0.3801667 -0.052835487 -0.024521902 -0.1601279 -0.2691503
-0.25773263 -0.10852696 0.23252039 -0.13405377 -0.0728296 0.29859748 -0.31250975 0.3175529
-0.39767838 0.29164654 0.15383561 0.33473372 -0.14412524 0.31106856 0.35956568 -0.0025936468
-0.12894319 0.1284549 -0.023943365 -0.006329251 0.18782191 -0.043743987 0.06395101 0.23494235
00000000: cb47 3d3d c268 09be 0037 29be 8979 b3bd
00000010: 8c21 aabe 0cef 8a3e 14b1 7ebe fcff 11be
00000020: 5cb4 16be 110e 70be cd69 9d3e 2b2e 10be
00000030: 6a40 6fbd 11b5 d8ba 0a3a cfbd 7115 543e
00000040: 6230 34be 547c 8bbe 2247 573d 5f8e 7abe
00000050: 03f6 46be a99b fdbd 575a 52be 4cd4 cebd
00000060: 2f19 dc3d afe9 843e 2b9b 7ebe d087 5abe
00000070: e3da 36be 333f ffbd 3e49 5f3e d1df a6be
00000080: 6f67 853e 65c0 a63e 9fb2 923d 36a5 c23e
00000090: 066a 58bd 28e2 c8bc 91f8 23be 11ce 89be
000000a0: 88f5 83be 6243 debd d319 6e3e 6445 09be
000000b0: af27 95bd c5e1 983e 4701 a0be 4b96 a23e
000000c0: 809c cbbe b252 953e 1587 1d3e 3862 ab3e
000000d0: 9195 13be 6144 9f3e fe18 b83e 2cfa 29bb
000000e0: af09 04be ae89 033e e024 c4bc 9b65 cfbb
000000f0: 6354 403e e52c 33bd bff8 823d ba94 703e

rnn.bias_ih_l1 f4 [8]
-0.037654035 -0.05341 0.110766925 0.18844086 0.1405006 0.121737756 -0.0014569421 -0.2353236
00000000: 1e3b 1abd 72c4 5abd c5d9 e23d a4f6 403e
00000010: 64df 0f3e a551 f93d ddf6 beba abf8 70be

rnn.bias_hh_l1 f4 [8]
-0.093475714 -0.052480325 -0.18344826 -0.06995717 0.018629167 -0.10470592 -0.25859675 -0.14148681
00000000: 3270 bfbd 9cf5 56bd dcd9 3bbe b445 8fbd
00000010: 329c 983c 0f70 d6bd cb66 84be ebe1 10be

rnn.weight_ih_l2 f4 [8, 8]
0.23562144 0.074559614 -0.08421357 0.25940531 0.27305016 0.18086697 -0.0118872905 0.03675905
-0.14476538 0.10752773 -0.12699135 0.11479244 -0.042645313 -0.2889964 -0.09434167 -0.08586961
-0.13903075 -0.08805857 -0.19194897 -0.08006256 0.011384338 0.1812446 -0.06178746 0.32118767
0.17357995 0.21795347 -0.057794005 -0.32636404 -0.030288653 -0.10643436 -0.20703472 -0.043314025
0.24342036 -0.02450018 0.33038285 -0.1181657 -0.15545297 0.21089438 0.23250674 -0.27656662
0.3901228 0.23929933 -0.12198305 -0.07142074 -0.20473352 -0.23080616 0.043366812 -0.19056153
0.34091493 0.38142255 -0.29226515 -0.23092712 -0.22881511 0.030930895 -0.2729251 0.10769158
0.27703592 -0.21103507 -0.015254212 0.23787968 0.10769682 -0.2899081 -0.15963714 0.17614691
00000000: bf46 713e b6b2 983d 2a78 acbd c6d0 843e
00000010: 3bcd 8b3e 3135 393e e9c2 42bc a890 163d
00000020: 603d 14be 8037 dc3d 050a 02be 4c18 eb3d
00000030: daac 2ebd 56f7 93be 3536 c1bd 68dc afbd
00000040: 145e 0ebe 0d58 b4bd 458e 44be d7f7 a3bd
00000050: 6085 3a3c 2f98 393e d914 7dbd b672 a43e
00000060: f1be 313e 322f 5f3e 68b9 6cbd 3019 a7be
00000070: e91f f8bc 42fa d9bd e900 54be 0c6a 31bd
00000080: 3043 793e 9ab4 c8bc f127 a93e dc00 f2bd
00000090: 102f 1fbe b2f4 573e 3f16 6e3e 249a 8dbe
000000a0: 2dbe c73e e20a 753e 40d2 f9bd 0945 92bd
000000b0: aaa5 51be 7358 6cbe 66a1 313d 9022 43be
000000c0: 678c ae3e d149 c33e c7a3 95be 2978 6cbe
000000d0: 824e 6abe ca62 fd3c d7bc 8bbe 678d dc3d
000000e0: a7d7 8d3e 9419 58be cdec 79bc bb96 733e
000000f0: 2690 dc3d d66e 94be eb77 23be db5f 343e

rnn.weight_hh_l2 f4 [8, 8]
0.19443512 0.003508655 -0.23989214 -0.14439803 -0.35192776 0.19536927 -0.12681992 -0.2924914
0.17851098 0.29563555 -0.30096918 -0.25805178 0.21661931 0.38334492 0.19026497 0.059333842
0.32949167 0.17042725 0.2817961 0.25428584 -0.27131814 0.069899306 -0.28357732 -0.045117293
0.08807612 0.29005694 0.0656271 -0.17239535 0.108565554 -0.2787522 -0.2600305 -0.17134738
-0.21384399 -0.25234014 -0.330609 0.14720637 0.0509982 0.17148298 -0.26709026 0.23577632
-0.20006108 -0.123492256 -0.036030333 0.17655583 0.21154945 0.2341437 0.2560662 0.341411
0.13210472 -0.22289675 0.27292004 -0.21759024 -0.17578286 -0.1929147 -0.22540894 0.06433355
-0.26176736 -0.04487265 0.13059634 -0.33998176 0.24279886 0.26100868 0.17237319 0.16737586
00000000: 001a 473e 76f1 653b 49a6 75be 14dd 13be
00000010: e02f b4be e20e 483e 15dd 01be 6fc1 95be
00000020: 95cb 363e 8b5d 973e a218 9abe 5d1f 84be
00000030: 74d1 5d3e c945 c43e d2d4 423e 0b08 733d
00000040: 22b3 a83e 7b84 2e3e 9447 903e c131 823e
00000050: 36ea 8abe 5e27 8f3d 0c31 91be e9cc 38bd
00000060: 4161 b43d 5882 943e 8067 863d 6888 30be
00000070: 9e57 de3d 9cb8 8ebe b822 85be b075 2fbe
00000080: ebf9 5abe ba32 81be 9545 a9be 44bd 163e
00000090: 7de3 503d 3c99 2f3e 0ec0 88be 596f 713e
000000a0: d0dc 4cbe 82e9 fcbd 8b94 13bd 0dcb 343e
000000b0: 6ba0 583e 5ec3 6f3e 1c1b 833e 6ccd ae3e
000000c0: 7646 073e 0c3f 64be 2dbc 8b3e facf 5ebe
000000d0: 6c00 34be 6e8b 45be 9ad1 66be 4fc1 833d
000000e0: 5f06 86be 62cc 37bd 0cbb 053e 1712 aebe
000000f0: 44a0 783e eea2 853e 9982 303e 9464 2b3e

rnn.bias_ih_l2 f4 [8]
0.12385027 -0.0710896 -0.10612496 0.0061332476 -0.058499157 -0.10405284 -0.05872848 -0.0464904
00000000: 36a5 fd3d 6d97 91bd 0b58 d9bd 69f9 c83b
00000010: d09c 6fbd a819 d5bd 468d 70bd b86c 3ebd

rnn.bias_hh_l2 f4 [8]
-0.0032997949 0.0070466166 0.11356554 -0.31433916 0.019163085 0.35293642 0.061997272 -0.21363595
00000000: 5f41 58bb 4ee7 e63b 0d95 e83d 10f1 a0be
00000010: e7fb 9c3c 15b4 b43e daf0 7d3d 62c3 5abe

rnn.weight_ih_l3 f4 [8, 8]
-0.13067771 -0.17979729 -0.16821362 0.020157183 -0.26737812 -0.3063208 -0.112773895 0.1320601
0.33053246 -0.041869443 -0.15739097 -0.16291448 0.23711984 -0.2884591 -0.3365817 0.32802126
-0.24608418 -0.24836662 -0.13248217 -0.14941697 -0.017249458 -0.28152213 -0.36405152 -0.035585403
-0.3486366 0.17036566 0.34714928 -0.0794139 0.29416937 0.008210208 -0.0015804898 -0.2542707
0.107426606 -0.22052926 0.1946799 0.2797107 0.03745931 0.36939567 -0.22412744 -0.2349845
0.153875 0.10832983 -0.21624225 -0.04560275 -0.3364807 0.079226755 0.31788677 0.062178396
-0.26866797 -0.3675978 -0.2220002 -0.31946355 0.092344694 0.019484766 -0.13129787 -0.17046234
0.1765987 -0.28345498 -0.31367916 0.102344796 -0.34504378 0.14331764 -0.20154473 -0.30224395
00000000: 61d0 05be c81c 38be 3140 2cbe ad20 a53c
00000010: c9e5 88be 14d6 9cbe 00f6 e6bd c33a 073e
00000020: 8d3b a93e 4b7f 2bbd 192b 21be 0ed3 26be
00000030: 8bcf 723e e9b0 93be 7054 acbe 67f2 a73e
00000040: 7efd 7bbe d253 7ebe 68a9 07be c300 19be
00000050: bc4e 8dbc ab23 90be f664 babe 00c2 11bd
00000060: 7f80 b2be 5674 2e3e 8dbd b13e c1a3 a2bd
00000070: 5e9d 963e 1c84 063c 7028 cfba c52f 82be
00000080: 7b02 dc3d 6cd2 61be 2b5a 473e 3e36 8f3e
00000090: ef6e 193d 6e21 bd3e aa81 65be c79f 70be
000000a0: 6891 1d3e 08dc dd3d 9c6e 5dbe f3c9 3abd
000000b0: 3347 acbe a341 a23d 0ec2 a23e c6ae 7e3d
000000c0: d98e 89be c735 bcbe 0554 63be ba90 a3be
000000d0: 371f bd3d 849e 9f3c f372 06be ae8d 2ebe
000000e0: 4ad6 343e 0321 91be 8e9a a0be 269a d13d
000000f0: 94a9 b0be dcc1 123e be61 4ebe b8bf 9abe

rnn.weight_hh_l3 f4 [8, 8]
0.34619698 0.10333698 0.19336514 -0.20087506 -0.1713956 -0.19453372 -0.30742648 -0.015079922
0.25329432 0.31405494 0.037300684 -0.255574 0.081709936 -0.22728124 0.07701638 0.24319254
-0.024560962 0.024291404 -0.23598894 0.08693196 -0.03571969 -0.27845198 -0.12514386 -0.123781726
0.024977569 0.10773819 -0.08407103 -0.2282267 0.23610842 0.07762316 -0.1116126 0.046688654
-0.028203283 -0.017719693 -0.08880451 -0.32512987 -0.27141592 0.21266095 -0.3280299 -0.20825352
-0.1293795 0.32964098 0.2938922 -0.24803069 0.30437234 0.047725514 -0.049762595 0.2777055
-0.32331717 -0.14784932 0.028759323 0.026862653 0.14506027 -0.2689865 -0.31069875 -0.009657052
-0.18559632 0.19643082 0.33368707 -0.066218935 -0.22381233 -0.32082367 0.27446985 -0.06746077
00000000: bb40 b13e 57a2 d33d 8301 463e 31b2 4dbe
00000010: 5482 2fbe d933 47be 0167 9dbe c711 77bc
00000020: cbaf 813e cfcb a03e 9ac8 183d 98da 82be
00000030: 8a57 a73d 6abc 68be c4ba 9d3d 7707 793e
00000040: 1234 c9bc c4fe c63c 16a7 71be 6209 b23d
00000050: cf4e 12bd 4291 8ebe b625 00be 4681 fdbd
00000060: c29d cc3c d7a5 dc3d 6f2d acbd 43b4 69be
00000070: 68c6 713e e4f8 9e3d 2695 e4bd 9a3c 3f3d
00000080: 920a e7bc e428 91bc 24df b5bd 6c77 a6be
00000090: 07f7 8abe cbc3 593e 89f3 a7be 6940 55be
000000a0: 0f7c 04be b4c6 a83e 0a79 963e c2fb 7dbe
000000b0: b1d6 9b3e d47b 433d ddd3 4bbd 6a2f 8e3e
000000c0: d489 a5be d065 17be ac98 eb3c 110f dc3c
000000d0: ae8a 143e 99b8 89be e813 9fbe 9d38 1ebc
000000e0: f60c 3ebe 2925 493e 08d9 aa3e cb9d 87bd
000000f0: 0f2f 65be 0043 a4be 5087 8c3e df28 8abd

rnn.bias_ih_l3 f4 [8]
0.094906636 0.16471596 0.20856437 -0.18720187 0.09017352 0.11455268 -0.2925509 0.07683189
00000000: 695e c23d 4dab 283e e691 553e d9b1 3fbe
00000010: e5ac b83d 989a ea3d 3bc9 95be 0a5a 9d3d

rnn.bias_hh_l3 f4 [8]
0.22632064 0.3510635 0.095383786 0.24569967 -0.022852635 0.22922818 0.057556715 0.108132884
00000000: 99c0 673e 98be b33e 9358 c33d b298 7b3e
00000010: 7335 bbbc cbba 6a3e 97c0 6b3d c674 dd3d

rnn.weight_ih_l4 f4 [8, 8]
0.22111046 -0.089871004 -0.18973361 0.26612595 -0.095217176 -0.32228848 -0.07060241 0.039269082
0.09198876 -0.09467974 0.2631049 -0.046405245 -0.19954582 0.19430232 -0.029019145 0.15276843
-0.07802109 0.18967253 -0.30483305 -0.2053568 -0.025864178 -0.19336596 -0.21459663 -0.34512615
-0.1328997 0.068704665 -0.253633 -0.3323515 -0.062242776 -0.07173897 0.027454099 0.21763112
-0.25750685 0.14164379 -0.26379415 -0.00039503 0.30078048 -0.13916501 -0.009605773 -0.3406908
0.040706035 0.3057891 0.20754032 0.34031937 0.024422936 -0.1049063 0.2604298 -0.26097286
0.19830227 -0.20592791 0.20056874 0.2847953 0.039214272 -0.2221456 0.014381515 0.10684769
0.009092828 -0.1839152 -0.37216628 0.27429345 -0.12688236 0.27542627 -0.25480965 0.16035372
00000000: c86a 623e 4a0e b8bd 8749 42be a941 883e
00000010: 3901 c3bd ff02 a5be ff97 90bd 9ed8 203d
00000020: 9a64 bc3d 74e7 c1bd afb5 863e 6d13 3ebd
00000030: bd55 4cbe 30f7 463e 8fb9 edbc 546f 1c3e
00000040: 85c9 9fbd 8439 423e 1413 9cbe 0e49 52be
00000050: 1de1 d3bc ba01 46be 38bf 5bbe 60b4 b0be
00000060: dc16 08be 08b5 8c3d 2fdc 81be fa29 aabe
00000070: 48f2 7ebd e2eb 92bd 6be7 e03c b1da 5e3e
00000080: f0d7 83be 120b 113e 0710 87be 071c cfb9
00000090: e6ff 993e 4681 0ebe 8861 1dbc 066f aebe
000000a0: 5fbb 263d 6490 9c3e 7385 543e 573e ae3e
000000b0: 9c12 c83c 1dd9 d6bd 0e57 853e 3c9e 85be
000000c0: c00f 4b3e c4de 52be e461 4d3e b1d0 913e
000000d0: 259f 203d 237a 63be 72a0 6b3c f6d2 da3d
000000e0: 16fa 143c 4454 3cbe 948c bebe 3170 8c3e
000000f0: 73ed 01be ac04 8d3e 6976 82be c433 243e

rnn.weight_hh_l4 f4 [8, 8]
-0.33273017 -0.022657113 -0.20290631 0.25790533 -0.20953566 -0.30008164 -0.18017499 -0.07147551
0.014151836 0.1196832 0.29900438 -0.084533155 -0.28232253 0.22942862 0.078880645 -0.2950419
0.2167501 0.04999384 -0.28907728 0.1307861 -0.13578856 0.09304705 -0.23613587 -0.20477901
-0.19373456 0.040089924 0.07546569 0.30463442 -0.08813383 0.046014156 0.074544236 -0.18854333
-0.32076406 0.06999299 -0.024827903 0.2698111 0.16500619 -0.1506402 -0.32891998 -0.29527578
0.15662643 -0.1129558 -0.26120055 0.20788465 0.094139345 0.310792 0.28719494 0.17454322
-0.28295583 0.23306511 -0.12772541 0.19629538 -0.11988977 -0.27940643 0.20891173 -0.20257078
-0.16211314 0.175027 0.17152083 0.2758196 0.23932819 -0.27407518 -0.092172965 -0.27512184
00000000: 9c5b aabe 699b b9bc acc6 4fbe 2b0c 843e
00000010: 8490 56be 4da4 99be cb7f 38be c161 92bd
00000020: 1add 673c 771c f53d 1a17 993e b81f adbd
00000030: 948c 90be 56ef 6a3e 2d8c a13d bb0f 97be
00000040: bdf3 5d3e 57c6 4c3d f001 94be cbec 053e
00000050: 280c 0bbe 748f be3d 9acd 71be 97b1 51be
00000060: 5a62 46be 5535 243d c18d 9a3d 0bf9 9b3e
00000070: 827f b4bd 5779 3c3d a6aa 983d 8111 41be
00000080: 303b a4be 7c58 8f3d e363 cbbc ae24 8a3e
00000090: 62f7 283e 6d41 1abe 3368 a8be 632e 97be
000000a0: ae62 203e 5f55 e7bd 14bc 85be b7df 543e
000000b0: 21cc c03d 2120 9f3e 370b 933e 75bb 323e
000000c0: 96df 90be 9fa8 6e3e 73ca 02be a801 493e
000000d0: c588 f5bd 5c0e 8fbe f5ec 553e b76e 4fbe
000000e0: fd00 26be 473a 333e 28a3 2f3e 3a38 8d3e
000000f0: 7312 753e 9553 8cbe 2ec5 bcbd c5dc 8cbe

rnn.bias_ih_l4 f4 [8]
0.06894963 0.17133485 -0.18787812 -0.07534552 0.18850218 0.13684489 -0.06511769 0.036137108
00000000: 7735 8d3d 6772 2f3e 1f63 40be c14e 9abd
00000010: b706 413e 1121 0c3e 6c5c 85bd 8104 143d

rnn.bias_hh_l4 f4 [8]
-0.12535271 -0.32800752 0.28528306 0.049339753 -0.12272732 -0.036869276 0.29339665 -0.19859666
00000000: 765c 00be 9af0 a7be 9f10 923e 7b18 4a3d
00000010: 7658 fbbd 3d04 17bd 1638 963e ec5c 4bbe

fc1.weight f4 [64, 240]
-0.0523182 -0.03264985 -0.0022956934 0.029820327 0.03035013 -0.058313277 -0.05557691 0.026589025
-0.054283764 -0.059804395 0.022383833 0.0002190914 -0.06164509 -0.026827155 -0.024480091 -0.0073890183
-0.06600887 0.029117811 0.06633614 -0.023302656 0.0492866 -0.006539566 -0.042525265 0.065954715
-0.0115451105 -0.019462911 0.04982457 -0.009235634 0.04014272 -0.0067071486 0.05102595 0.044758808
0.028797643 -0.0063990457 -0.046307933 -0.026167985 0.045944616 0.03664291 0.04758603 -0.02273045
0.0027568624 0.0067541823 0.018440614 0.029634848 -0.058731813 -0.021623459 0.013524139 -0.0031536892
0.058975752 -0.025724404 0.06532694 -0.065107495 -0.04610434 0.054061543 -0.02337656 -0.039484795
-0.005960558 -0.04728337 -0.032887425 0.005072041 -0.05140944 -0.0044949525 -0.042617492 -0.054580312
-0.02830839 0.054511223 0.0073940028 -0.027703805 0.028894559 -0.041397642 -0.016060656 -0.05766456
0.041743115 -0.04225456 0.0474965 0.03415557 -0.04410859 0.04567941 -0.041142374 0.008174485
-0.02160021 -0.053360038 0.04144835 -0.05484123 0.015717242 -0.037523337 0.018942375 -0.017907854
-0.035592254 0.034068145 0.03870959 0.055409763 0.059152026 0.042978983 0.064827524 -0.063016504
0.054909945 0.057656895 -0.058396243 0.043208864 -0.047242064 0.04604798 0.054134764 -0.04047653
0.026430996 0.0041703833 0.06712174 -0.037076548 -0.017242862 -0.01877001 0.006239286 0.0022935944
-0.03566689 -0.021476867 -0.016889386 -0.044064034 0.060798947 -0.004679992 -0.06122711 0.00908678
0.013425342 0.039708756 0.033293698 -0.010012193 -0.036230706 0.064491555 0.060593247 0.018081188
-0.062251043 0.019784965 -0.0005962823 0.05007053 -0.008809824 -0.033716574 0.05215034 -0.0010461452
0.029386863 -0.004615654 -0.0041162674 0.04590535 -0.026356906 0.004167485 0.0049170624 0.04985545
-0.028837647 0.007852303 -0.00083764934 -0.04756285 0.049881738 0.023402896 0.018828304 -0.003265917
-0.06192426 -0.03168622 -0.063965835 -0.0371718 0.035949316 0.0165599 -0.05771587 -0.036654647
0.048631735 0.057676524 -0.0028110042 -0.04129101 0.015353292 0.011912971 0.057365414 -0.02662534
-0.01832876 0.039566837 0.008081664 -0.055849563 0.036698002 0.009918596 0.039952867 0.020792983
0.01351668 0.05796859 -0.04231191 -0.0143895475 -0.039311733 0.004378486 -0.019171653 0.04050355
0.0025699723 -0.05696361 -0.054358024 -0.007844319 0.010442907 0.06571449 0.05895158 -0.041552246
-0.062516905 0.05762137 0.005636722 -0.05020646 -0.06006516 0.033594083 0.002963631 0.027671006
0.007024114 0.04986354 -0.0010090383 0.0012949905 -0.034691542 0.0064164065 -0.00026899003 -0.061332192
-0.027632168 -0.0047414396 -0.045757927 -0.04104172 0.014924515 -0.04136832 -0.02945077 -0.06876149
0.045570575 0.01788029 0.0035796708 0.060705625 0.004972111 0.05609733 0.049511787 -0.043038677
-0.009717592 0.065618336 0.01812063 0.03267025 -0.063679434 -0.03083802 -0.015659602 -0.0049682716
-0.050091576 -0.023361735 -0.09851411 0.010885062 -0.040406637 0.052173994 0.033089984 -0.06535373
-0.056035686 0.049190138 0.02461536 0.05342123 0.030083302 -0.0478669 -0.064215116 0.062262706
-0.018236266 0.0007318985 -0.043605972 -0.02764196 -0.052813318 0.057926003 0.05094166 0.046005562
00000000: 9c4b 56bd d9bb 05bd 5873 16bb c249 f43c
00000010: d6a0 f83c e7d9 6ebd 9da4 63bd 3ad1 d93c
00000020: a758 5ebd 74f5 74bd 4d5e b73c e6bb 6539
00000030: 907f 7cbd 9fc4 dbbc 798a c8bc 941f f2bb
00000040: a92f 87bd 7a88 ee3c 3edb 873d 36e5 bebc
00000050: bfe0 493d db49 d6bb f92e 2ebd 4413 873d
00000060: b427 3dbc af70 9fbc d914 4c3d 0e51 17bc
00000070: b16c 243d a4c7 dbbb 9600 513d 0355 373d
00000080: 09e9 eb3c 16af d1bb 63ad 3dbd 3e5e d6bc
00000090: 6c30 3c3d e016 163d 92e9 423d 3535 babc
000000a0: 7aac 343b 3052 dd3b c510 973c c8c4 f23c
000000b0: c590 70bd ae23 b1bc 5a94 5d3c 20ae 4ebb
000000c0: 8f90 713d fcbb d2bc 21ca 853d 1457 85bd
000000d0: e8d7 3cbd a36f 5d3d 3380 bfbc cfba 21bd
000000e0: c950 c3bb 35ac 41bd f7b4 06bd 5d33 a63b
000000f0: b492 52bd 654a 93bb ae8f 2ebd 9b8f 5fbd
00000100: ffe6 e7bc 2947 5f3d 6449 f23b 17f3 e2bc
00000110: 48b4 ec3c 9390 29bd a391 83bc ac31 6cbd
00000120: d4fa 2a3d 1e13 2dbd b18b 423d b6e6 0b3d
00000130: 35ab 34bd 551a 3b3d e884 28bd 46ee 053c
00000140: ecf2 b0bc 0e90 5abd bfc5 293d 33a1 60bd
00000150: 72c1 803c 12b2 19bd 0a2d 9b3c 7eb3 92bc
00000160: 2fc9 11bd 0a8b 0b3d f28d 1e3d 59f5 623d
00000170: 6549 723d bb0a 303d 4bc4 843d cc0e 81bd
00000180: 40e9 603d a329 6c3d e630 6fbd c7fb 303d
00000190: e580 41bd cf9c 3c3d 6abc 5d3d b8ca 25bd
000001a0: d185 d83c b6a7 883b 1f77 893d 94dd 17bd
000001b0: e740 8dbc 90c3 99bc ed72 cc3b 2150 163b
000001c0: 7217 12bd 41f0 afbc 9c5b 8abc 7d7c 34bd
000001d0: 5108 793d 9e5a 99bb 47c9 7abd b8e0 143c
000001e0: f7f5 5b3c a6a5 223d f95e 083d 2e0a 24bc
000001f0: a666 14bd 2614 843d a030 783d 001f 943c
00000200: f3fa 7ebd 1414 a23c d44f 1cba c216 4d3d
00000210: 1457 10bc 641a 0abd 989b 553d cf1e 89ba
00000220: b8bc f03c e93e 97bb c1e1 86bb 4007 3c3d
00000230: 70ea d7bc 668f 883b 4f1f a13b 3a35 4c3d
00000240: ee3c ecbc f2a6 003c b295 5bba 43d1 42bd
00000250: cb50 4c3d 6eb7 bf3c d13d 9a3c ff08 56bb
00000260: 4ba4 7dbd 69c9 01bd 8500 83bd 7541 18bd
00000270: 973f 133d a1a8 873c 7a67 6cbd 2f23 16bd
00000280: 1232 473d 383e 6c3d d338 38bb c320 29bd
00000290: 608c 7b3c 9f2e 433c fff7 6a3d 631d dabc
000002a0: 3226 96bc d610 223d f568 043c 83c2 64bd
000002b0: a550 163d 9b81 223c 9ea5 233d 0c56 aa3c
000002c0: 1175 5d3c 7970 6d3d 414f 2dbd 23c2 6bbc
000002d0: 5705 21bd 6779 8f3b df0d 9dbc 0de7 253d
000002e0: fb6c 283b ad52 69bd 85a6 5ebd 7585 00bc
000002f0: ba18 2b3c 5295 863d 3677 713d b032 2abd
00000300: dd08 80bd 6304 6c3d 40b4 b83b 4aa5 4dbd
00000310: e306 76bd f399 093d 7a39 423b 4eae e23c
00000320: 8a2a e63b b63d 4c3d b541 84ba acbc a93a
00000330: b818 0ebd b840 d23b 3b07 8db9 7737 7bbd
00000340: db5c e2bc 145e 9bbb aa6c 3bbd 5d1b 28bd
00000350: f485 743c d471 29bd be42 f1bc d3d2 8cbd
00000360: 36a8 3a3d b079 923c e998 6a3b 76a6 783d
00000370: 17ed a23b 50c6 653d dfcc 4a3d 5349 30bd
00000380: 8936 1fbc e862 863d b771 943c 3dd1 053d
00000390: 5d6a 82bd 04a0 fcbc 9148 80bc e2cc a2bb
000003a0: d32c 4dbd 1c61 bfbc c4c1 c9bd 4257 323c
000003b0: 6e81 25bd 66b4 553d 5d89 073d 2dd8 85bd
000003c0: ad85 65bd 997b 493d 27a6 c93c 38d0 5a3d
000003d0: 4271 f63c 1510 44bd 3783 83bd 2e07 7f3d
000003e0: 3964 95bc e0dc 3f3a 2d9c 32bd 6471 e2bc
000003f0: c752 58bd d143 6d3d 34a8 503d 5470 3c3d

fc1.bias f4 [64]
-0.00028619147 -0.058751184 -0.049922206 -0.03826149 0.040721398 -0.025194846 0.03817895 0.04875863
0.05632572 -0.049900092 0.025166186 -0.042063124 0.0095284255 -0.04737739 0.06260367 -0.03220265
-0.02308154 0.051629234 -0.030461049 0.05037255 -0.054453824 -0.009979218 0.062767446 0.024405433
-0.026152926 0.018546611 0.008745277 0.0023896978 -0.04036535 -0.05551563 0.0063498467 0.0069717355
0.0048881816 -0.025867462 -0.012601219 -0.04335411 0.038578928 0.053819835 -0.05678277 -0.024299625
-0.03360419 0.035798356 0.0281869 -0.0630499 -0.0012932075 -0.025504922 -0.036862824 0.033452712
0.060802706 -0.006964511 0.03542085 -0.067390375 0.05955844 0.06015657 -0.009231422 -0.059318658
0.019420719 0.014597395 -0.027035024 -0.0065739914 0.06385223 0.007425879 -0.048361633 -0.05309621
00000000: f80b 96b9 15a5 70bd 3a7b 4cbd 15b8 1cbd
00000010: 7bcb 263d 6c65 cebc 8861 1c3d 21b7 473d
00000020: ccb5 663d 0a64 4cbd 5129 ce3c 624a 2cbd
00000030: 1d1d 1c3c cb0e 42bd 5a36 803d ede6 03bd
00000040: 7f15 bdbc 2d79 533d 7389 f9bc 7253 4e3d
00000050: f90a 5fbd e07f 23bc 388c 803d e7ed c73c
00000060: a93e d6bc 10ef 973c 5a48 0f3c 7a9c 1c3b
00000070: 2356 25bd 5b64 63bd 6012 d03b 2873 e43b
00000080: 0a2d a03b 00e8 d3bc 5875 4ebc 1494 31bd
00000090: f004 1e3d 3072 5c3d 0d95 68bd 0210 c7bc
000000a0: 8ca4 09bd 4ca1 123d 37e8 e63c 4e20 81bd
000000b0: d880 a9ba b3ef d0bc 79fd 16bd b605 093d
000000c0: 420c 793d 8d36 e4bb 7415 113d f703 8abd
000000d0: 8df3 733d bc66 763d 643f 17bc 1ff8 72bd
000000e0: 3318 9f3c ea29 6f3c 8e78 ddbc a36a d7bb
000000f0: f5c4 823d ca54 f33b d916 46bd 697b 59bd

fc2.weight f4 [1, 64]
0.025321394 -0.016175285 0.09781061 0.01620379 0.037307348 -0.022910226 0.11598405 -0.087828726
-0.032507736 -0.065173574 0.041471787 0.05174384 -0.025259929 -0.1082776 0.06375785 -0.10769625
0.061349183 0.031242043 0.044382304 -0.05978083 0.08957586 0.066868454 0.027655043 0.0708387
0.06309399 0.021678274 0.031118108 -0.03580374 -0.114917204 0.031582084 -0.11462704 -0.111017466
-0.098301925 -0.055813946 0.017096316 -0.112593286 -0.024896732 0.041428328 0.057151765 -0.06805855
-0.029869797 -0.072899856 -0.06451712 -0.11230956 0.07798355 -0.008706142 0.06751552 0.0772874
-0.09894478 -0.02829937 -0.09320473 -0.08771175 0.04469457 -0.09928054 -0.0965336 0.11263007
0.08182648 0.12475753 -0.05332155 0.047592897 0.088146895 -0.10552686 -0.010437672 -0.06947672
00000000: d06e cf3c 0882 84bc ee50 c83d d0bd 843c
00000010: 97cf 183d 3aae bbbc 0c89 ed3d 8cdf b3bd
00000020: d526 05bd b979 85bd 52de 293d 59f1 533d
00000030: e9ed cebc a5c0 ddbd 7a93 823d da8f dcbd
00000040: 4849 7b3d 50ef ff3c 38ca 353d bedc 74bd
00000050: 8c73 b73d 54f2 883d d48c e23c e113 913d
00000060: 6c37 813d a396 b13c 67eb fe3c f1a6 12bd
00000070: b659 ebbd 375c 013d 95c1 eabd 205d e3bd
00000080: 8552 c9bd 2a9d 64bd 930d 8c3c 4f97 e6bd
00000090: 3bf4 cbbc c0b0 293d f817 6a3d 4862 8bbd
000000a0: 81b1 f4bc 854c 95bd 8d21 84bd 8e02 e6bd
000000b0: d7b5 9f3d 35a4 0ebc 9445 8a3d db48 9e3d
000000c0: 90a3 cabd 15d4 e7bc 1fe2 bebd 38a2 b3bd
000000d0: a711 373d 9953 cbbd 68b3 c5bd 98aa e63d
000000e0: a494 a73d e080 ff3d b367 5abd c5f0 423d
000000f0: 5c86 b43d 771e d8bd c502 2bbc d049 8ebd
