modeling/rnn_sam.pth (torch, 68300 bytes, 23 tensors)

rnn.weight_ih_l0 f4 [8, 1]
-0.27739185 0.1463552 0.30681407 -0.3631397 0.16819051 -0.24907596 -0.42509794 0.1580147
00000000: 4e06 8ebe 23de 153e bc16 9d3e 72ed b9be
00000010: 223a 2c3e c50d 7fbe 70a6 d9be 9bce 213e

rnn.weight_hh_l0 f4 [8, 8]
0.07243703 0.03269892 -0.19110398 -0.3497575 0.07283383 0.31637865 0.1884355 0.315813
0.014461676 0.2122201 -0.016676111 0.1280589 -0.3345452 0.09163148 -0.34338394 -0.039015967
0.062016472 -0.11509204 -0.3140836 0.35143876 0.109118775 0.23363982 -0.1081504 -0.054181285
-0.0990433 0.14687084 0.2935968 -0.40294936 -0.08561177 0.022334583 -0.283355 -0.21894258
0.20611978 -0.047309935 0.1774531 0.2517345 0.21619387 0.18968344 -0.19954756 0.07943149
-0.10725313 -0.39039946 -0.058015224 -0.13730589 -0.033829357 -0.022285182 0.16521983 0.13914308
-0.22635789 -0.2562941 -0.0055486835 0.24117132 0.31192768 0.030661277 -0.1587593 -0.14476578
0.3304036 -0.097061865 -0.20828222 0.3334378 -0.2030016 -0.20146568 0.3597166 -0.11191757
00000000: de59 943d 4eef 053d c3b0 43be 6a13 b3be
00000010: e729 953d 62fc a13e 3cf5 403e 3eb2 a13e
00000020: aaf0 6c3c 3a50 593e 579c 88bc df21 033e
00000030: 8249 abbe 49a9 bb3d 05d0 afbe 35cf 1fbd
00000040: fc04 7e3d 60b5 ebbd 91cf a0be c8ef b33e
00000050: aa79 df3d 473f 6f3e f57d ddbd 32ed 5dbd
00000060: 37d7 cabd 4f65 163e 5252 963e 614f cebe
00000070: 3955 afbd 04f7 b63c e813 91be 7c32 60be
00000080: 1011 533e 10c8 41bd 44b6 353e 58e3 803e
00000090: ed61 5d3e 603c 423e 3256 4cbe faac a23d
000000a0: 87a7 dbbd 70e2 c7be 5fa1 6dbd ea99 0cbe
000000b0: a790 0abd 6a8f b6bc 632f 293e 867b 0e3e
000000c0: 5dca 67be fb38 83be bbd1 b5bb 9df5 763e
000000d0: fcb4 9f3e 5c2d fb3c cc91 22be 7b3d 14be
000000e0: a92a a93e 5fc8 c6bd ef47 55be 5cb8 aa3e
000000f0: a7df 4fbe 054d 4ebe c62c b83e 0a35 e5bd

rnn.bias_ih_l0 f4 [8]
0.23843051 0.13186824 -0.2616853 -0.0030591553 0.024761224 0.2534141 -0.30095473 -0.28407824
00000000: 2127 743e 7808 073e 9efb 85be 1c7c 48bb
00000010: 0dd8 ca3c 7ebf 813e bd16 9abe b472 91be

rnn.bias_hh_l0 f4 [8]
-0.12517005 -0.13293976 -0.041334882 0.12845336 0.15108627 0.30512294 0.012548986 0.061258063
00000000: 942c 00be 5c21 08be c44e 29bd 4789 033e
00000010: 5cb6 1a3e 1339 9c3e 439a 4d3c bce9 7a3d

rnn.weight_ih_l1 f4 [8, 8]
-0.30042365 -0.20077683 -0.015125168 -0.3006915 0.049360305 -0.013208117 -0.39016435 -0.20651785
-0.1606167 -0.24397388 -0.38345084 -0.058824103 -0.09284828 0.36091048 -0.07744741 -0.27444172
-0.3212211 0.37314713 0.2986596 -0.17384522 0.24791874 0.05772906 -0.25550443 -0.07486147
-0.06515783 0.20221324 -0.0272059 -0.37107208 0.08214105 -0.33272764 -0.24984561 -0.28971642
-0.35615742 -0.079963565 -0.2742243 -0.30681604 0.35163155 -0.29133254 -0.33802304 -0.09282078
0.3796343 -0.3483127 -0.09246162 0.27806896 0.039465144 0.087353446 -0.2855653 0.059870057
0.35294566 -0.060086306 0.13748097 0.34160304 -0.035045855 0.09833806 0.23193659 -0.31315202
0.1763659 0.16738053 0.18382226 -0.2318529 0.1910092 0.07277861 -0.017960401 0.059540704
00000000: 21d1 99be 7198 4dbe 8dcf 77bc 3cf4 99be
00000010: 082e 4a3d dc66 58bc 9fc3 c7be 6a79 53be
00000020: b478 24be 4ad4 79be ab53 c4be 8bf1 70bd
00000030: 3d27 bebd 42c9 b83e bf9c 9ebd a083 8cbe
00000040: 1877 a4be 240d bf3e e9e9 983e 7b04 32be
00000050: 69de 7d3e 4f75 6c3d 7ad1 82be f850 99bd
00000060: 7871 85bd fd10 4f3e e8de debc 29fd bdbe
00000070: 9139 a83d 475b aabe 87d7 7fbe b655 94be
00000080: 445a b6be f0c3 a3bd 2167 8cbe fe16 9dbe
00000090: 0d09 b43e 8a29 95be 5b11 adbe d218 bebd
000000a0: 6d5f c23e 0b56 b2be 855c bdbd 0e5f 8e3e
000000b0: 34a6 213d 5de6 b23d 9d35 92be 4e3a 753d
000000c0: 4bb5 b43e 0f1d 76bd d0c7 0c3e 98e6 ae3e
000000d0: 3e8c 0fbd 7765 c93d c980 6d3e 7655 a0be
000000e0: 4399 343e cd65 2b3e e73b 3c3e d96a 6dbe
000000f0: ea97 433e f40c 953d b121 93bc f4e0 733d

rnn.weight_hh_l1 f4 [8, 8]
0.35095385 -0.056824915 0.10904078 -0.3379089 -0.3425401 -0.20854598 0.21696387 0.105775185
-0.03457174 0.021069895 0.08459593 0.09786561 0.18201627 0.15362301 -0.13899185 0.33979222
-0.27008185 -0.14660561 0.024905104 -0.017985636 -0.33621117 0.13148858 0.3619048 -0.0037756192
0.01766292 0.16215901 -0.26955926 0.24931951 0.1409196 -0.2773886 0.19390203 -0.14901161
-0.11440903 0.39546695 -0.31133893 -0.17287967 -0.33662197 0.036820803 0.2989575 0.027975064
-0.3844294 0.071545295 0.22192426 -0.34326097 -0.25661218 -0.047601517 -0.36315334 0.12363815
0.18384433 -0.34367657 0.17609231 0.1080074 0.25222912 -0.080922425 0.11949024 0.3239566
0.31865627 0.38672104 -0.31735018 0.17026046 0.15288171 0.17620753 -0.015414999 -0.2478208
00000000: 39b0 b33e 3ec1 68bd c650 df3d 6502 adbe
00000010: 6a61 afbe 148d 55be c72b 5e3e a9a0 d83d
00000020: 199b 0dbd c69a ac3c a240 ad3d c46d c83d
00000030: 7962 3a3e 5a4f 1d3e e153 0ebe 3ff9 ad3e
00000040: 2b48 8abe c81f 16be ca05 cc3c 9d56 93bc
00000050: df23 acbe f1a4 063e 964b b93e 6170 77bb
00000060: d4b1 903c 030d 263e ac03 8abe 9d4d 7f3e
00000070: 3a4d 103e e105 8ebe 418e 463e 8096 18be
00000080: 484f eabd a57a ca3e d167 9fbe 5e07 31be
00000090: b759 acbe 69d1 163d f510 993e f62b e53c
000000a0: eed3 c4be 5786 923d 1d40 633e e7bf afbe
000000b0: ac62 83be cff9 42bd 3cef b9be 0036 fd3d
000000c0: b041 3c3e 60f6 afbe 8b51 343e fc32 dd3d
000000d0: 2d24 813e a8ba a5bd 4db7 f43d a4dd a53e
000000e0: ea26 a33e 4d00 c63e b97b a2be c258 2e3e
000000f0: 068d 1c3e bf6f 343e 318f 7cbc bcc4 7dbe

rnn.bias_ih_l1 f4 [8]
0.17405066 0.09793639 -0.16846812 -0.2621462 -0.18395282 0.093349725 0.26479208 0.010629873
00000000: 563a 323e e092 c83d e882 2cbe 0738 86be
00000010: 215e 3cbe 242e bf3d d492 873e eb28 2e3c

rnn.bias_hh_l1 f4 [8]
-0.3034191 -0.06261886 0.16302465 -0.18723376 -0.27721295 0.01121295 -0.11655634 0.29023862
00000000: c059 9bbe 513e 80bd efef 263e 35ba 3fbe
00000010: dbee 8dbe 85b6 373c 17b5 eebd 289a 943e

rnn.weight_ih_l2 f4 [8, 8]
-0.005062833 -0.3392197 0.2146877 -0.2419181 -0.16538489 -0.17766738 -0.072270215 -0.18279792
-0.12517731 0.11709684 0.33039364 0.30107534 0.12791665 0.06549939 -0.3190099 -0.33099553
0.07582242 -0.12466226 0.12837769 -0.2900446 0.15723398 0.005208566 0.22577156 0.19681859
-0.27107704 0.29658353 -0.19335379 -0.24316235 0.063812666 -0.2841988 0.34165874 -0.17510302
-0.36285007 -0.0041696737 0.11385967 -0.24863449 0.042471293 0.37942094 -0.20686294 -0.01486739
0.0604942 0.2536577 0.107191384 0.12327282 0.09192309 -0.20438391 -0.18859756 0.00903818
-0.17981842 -0.3361537 0.28082564 0.13857345 0.3456539 -0.04928177 -0.28383893 0.11223041
-0.063177556 0.15043744 0.27321395 0.13814726 0.19215539 0.329079 0.19332929 0.21658921
00000000: 1fe6 a5bb 34ae adbe 18d7 5b3e 61b9 77be
00000010: a85a 29be 70ee 35be 6802 94bd 612f 3bbe
00000020: 7b2e 00be 78d0 ef3d 5b29 a93e 8c26 9a3e
00000030: 95fc 023e 8b24 863d 4455 a3be 3f78 a9be
00000040: c948 9b3d ed4e ffbd 7175 033e ba80 94be
00000050: f201 213e 9eac aa3b a930 673e d08a 493e
00000060: 9cca 8abe ccd9 973e 89fe 45be 8dff 78be
00000070: 37b0 823d 8182 91be e5ed ae3e 354e 33be
00000080: 7cc7 b9be c2a1 88bb 422f e93d 0a9a 7ebe
00000090: 61f6 2d3d 7643 c23e e1d3 53be 5a96 73bc
000000a0: c4c8 773d 6cdf 813e 2887 db3d 7676 fc3d
000000b0: 2c42 bc3d 044a 51be b81f 41be e014 143c
000000c0: 5222 38be 561c acbe 61c8 8f3e 33e6 0d3e
000000d0: 8cf9 b03e aedb 49bd 5653 91be 0fd9 e53d
000000e0: 3c63 81bd 460c 1a3e b3e2 8b3e 7a76 0d3e
000000f0: 62c4 443e 0b7d a83e 1df8 453e 90c9 5d3e

rnn.weight_hh_l2 f4 [8, 8]
-0.054309994 -0.046038345 0.17564243 -0.118258506 -0.07251531 -0.3247319 0.25906342 -0.14693429
0.29435977 -0.011740198 -0.03970794 -0.06532216 0.26213738 -0.17968471 0.36082894 -0.21328941
-0.29657632 0.2322858 0.238629 0.35225117 0.100056365 -0.40621594 0.11535318 0.27921596
-0.12164784 -0.33173558 -0.02446936 -0.008844225 -0.18519464 0.13688457 -0.10104133 -0.112562604
0.21855123 -0.1015384 -0.35486925 0.05789451 0.14962351 -0.2355203 0.022954933 -0.19064179
0.27524114 0.17467545 -0.2644543 0.1782866 -0.1970225 -0.06245064 -0.1282156 0.20033981
-0.33760893 0.0012394468 -0.31171703 -0.068255946 -0.29223272 0.09996305 -0.2609337 0.10852426
-0.24681069 0.03369287 -0.056466818 -0.31526202 -0.15246578 -0.015335644 0.045724023 -0.20076646
00000000: 2874 5ebd b492 3cbd 9cdb 333e 8431 f2bd
00000010: e882 94bd 4243 a6be f6a3 843e f175 16be
00000020: 53b6 963e f659 40bc cba4 22bd a0c7 85bd
00000030: df36 863e 45ff 37be 92be b83e 8a68 5abe
00000040: dad8 97be 54dc 6d3e 295b 743e 445a b43e
00000050: 5aea cc3d 89fb cfbe 4a3e ec3d 65f5 8e3e
00000060: 8122 f9bd 3fd9 a9be f873 c8bc 5ee7 10bc
00000070: aaa3 3dbe 782b 0c3e c2ee cebd 3987 e6bd
00000080: e5cb 5f3e 5df3 cfbd 6cb1 b5be cb22 6d3d
00000090: e836 193e 3c2c 71be fc0b bc3c 9a37 43be
000000a0: 68ec 8c3e 1fde 323e 8e66 87be c390 363e
000000b0: 44c0 49be 3ecc 7fbd f34a 03be e125 4d3e
000000c0: 14db acbe ef74 a23a 6099 9fbe c6c9 8bbd
000000d0: 879f 95be 6db9 cc3d 1a99 85be f841 de3d
000000e0: f1bb 7cbe 8901 0a3d c049 67bd 066a a1be
000000f0: fd1f 1cbe 5a42 7bbc 1d49 3b3d b995 4dbe

rnn.bias_ih_l2 f4 [8]
0.20742671 0.16484591 0.29796314 -0.088499635 -0.33926833 -0.17825325 0.09968492 -0.18582599
00000000: ab67 543e 5ecd 283e a08e 983e 4c3f b5bd
00000010: 94b4 adbe 0588 36be 9b27 cc3d 2b49 3ebe

rnn.bias_hh_l2 f4 [8]
0.28360972 0.12496282 0.26436004 0.14416341 0.070785195 -0.27071184 0.31251934 0.22972015
00000000: 4b35 913e 82ec ff3d 335a 873e 939f 133e
00000010: d4f7 903d be9a 8abe 8902 a03e c23b 6b3e

rnn.weight_ih_l3 f4 [8, 8]
-0.04231358 0.17853405 -0.3555545 0.264282 0.12223825 -0.10086466 0.22121868 -0.17537892
0.05125777 -0.13191383 0.31718335 0.061327387 0.26229677 -0.1708671 -0.19468993 0.11988291
0.08676692 0.28038353 0.12863773 -0.39201155 0.057759926 0.30711877 0.34844157 0.3233276
-0.30315116 -0.3321291 0.092354 0.2747235 0.23807985 0.07000128 -0.056792323 0.3153699
0.06514302 -0.29059216 0.29062304 0.04889339 -0.084142745 -0.08688558 -0.00012056721 -0.14501189
0.14752752 0.24183725 -0.34558246 -0.050887898 0.053330857 -0.33491144 -0.25541994 -0.19921684
-0.29792622 -0.18655142 -0.33075747 -0.08889637 0.15371574 0.10324928 0.3415466 -0.25393638
-0.14863591 -0.13537313 -0.009994721 0.20668569 0.312252 -0.34838167 -0.08404252 -0.0068793036
00000000: 0151 2dbd a1d1 363e 3d0b b6be f84f 873e
00000010: 0c58 fa3d 2292 cebd 2687 623e 8896 33be
00000020: abf3 513d 6b14 07be db65 a23e 6d32 7b3d
00000030: c34b 863e c9f7 2ebe cc5c 47be 2c85 f53d
00000040: dbb2 b13d 6e8e 8f3e 9cb9 033e bdb5 c8be
00000050: ac95 6c3d ac3e 9d3e ef66 b23e 328b a53e
00000060: a136 9bbe d30c aabe 1824 bd3d 8fa8 8c3e
00000070: 34cb 733e d55c 8f3d 119f 68bd 2a78 a13e
00000080: b469 853d 7fc8 94be 8bcc 943e 6f44 483d
00000090: 0853 acbd 11f1 b1bd 07d9 fcb8 ff7d 14be
000000a0: 7411 173e 2fa4 773e 2ff0 b0be d46f 50bd
000000b0: 7571 5a3d 8379 abbe 67c6 82be 80ff 4bbe
000000c0: c989 98be 5607 3fbe 0b59 a9be 4d0f b6bd
000000d0: a967 1d3e 5c74 d33d 32df ae3e f303 82be
000000e0: 0334 18be 419f 0abe e6c0 23bc 6aa5 533e
000000f0: 7fdf 9f3e 155f b2be 7c1e acbd c86b e1bb

rnn.weight_hh_l3 f4 [8, 8]
0.036557503 -0.35655862 0.095036715 0.1633038 0.2697143 -0.16258895 -0.01215455 0.17196663
-0.0112421205 0.16294456 0.046980884 0.27424383 -0.14583339 0.30171126 -0.30371702 0.14396839
0.0015097801 -0.332335 0.24527921 -0.14577267 0.18879895 -0.1684202 0.012046804 0.06794824
-0.2948331 -0.290678 0.03592771 -0.014049701 -0.25579786 0.23968117 0.042972356 0.008630768
0.35957286 0.23825249 0.18935983 -0.19436747 0.16920151 -0.31730092 -0.2635106 -0.2297477
-0.11409433 -0.040329058 -0.013918469 0.21773228 -0.029991182 -0.36071613 0.003704647 -0.2592967
-0.1203048 -0.33695373 -0.25987118 -0.21775815 -0.0045076166 -0.38799447 -0.22998622 -0.14562361
0.20854554 0.23359059 0.28978425 0.08865527 -0.19282682 -0.007841422 0.12125922 -0.17669812
00000000: 52bd 153d da8e b6be 9ca2 c23d 1d39 273e
00000010: fe17 8a3e b87d 26be e123 47bc 0518 303e
00000020: df30 38bc f0da 263e 076f 403d b069 8c3e
00000030: 5955 15be e679 9a3e cc80 9bbe 736c 133e
00000040: d0e3 c53a d027 aabe 792a 7b3e 6e45 15be
00000050: 8354 413e 5876 2cbe f55f 453c 7228 8b3d
00000060: 5df4 96be bfd3 94be ef28 133d b830 66bc
00000070: f0f7 82be fb6e 753e c803 303d 1168 0d3c
00000080: ef19 b83e 76f8 733e 8be7 413e 4408 47be
00000090: 2943 2d3e 4475 a2be ddea 86be fb42 6bbe
000000a0: 4aaa e9bd 1530 25bd 4a0a 64bc 36f5 5e3e
000000b0: 11b0 f5bc c9af b8be aac9 723b 89c2 84be
000000c0: 5d62 f6bd 3385 acbe d60d 85be fefb 5ebe
000000d0: a1b4 93bb 36a7 c6be 8281 6bbe 5b1e 15be
000000e0: f68c 553e 5f32 6f3e 9a5e 943e e590 b53d
000000f0: 6574 45be 4f79 00bc c156 f83d 5af0 34be

rnn.bias_ih_l3 f4 [8]
0.23174 0.017691411 0.29622325 -0.04546147 0.13943677 0.12902358 -0.17473234 0.16993009
00000000: 404d 6d3e 94ed 903c 93aa 973e ce35 3abd
00000010: 83c8 0e3e c21e 043e 09ed 32be 2702 2e3e

rnn.bias_hh_l3 f4 [8]
0.2232411 0.035744444 -0.19860962 0.3177871 -0.0243674 -0.008878803 0.34901866 -0.19618364
00000000: 5199 643e c468 123d 5260 4bbe feb4 a23e
00000010: 249e c7bc 6678 11bc 93b2 b23e 5de4 48be

rnn.weight_ih_l4 f4 [8, 8]
0.033966195 -0.15999715 0.10965221 0.13632326 -0.31768003 -0.13554922 -0.23954375 -0.28216007
0.3316411 0.028857224 -0.31521216 -0.07984331 0.22924075 -0.290699 0.1515174 0.10365201
-0.30262265 0.2559321 -0.19734955 0.19727562 -0.14827688 0.2759427 -0.28959215 0.3275128
0.2198849 0.16380243 -0.3391439 -0.088857725 0.16955741 -0.07491748 -0.063321166 0.021458494
-0.31868982 -0.21110488 0.3225951 0.22508715 0.24548675 -0.03334745 -0.07753524 -0.29483005
-0.08302307 -0.17495148 0.028733762 -0.08132284 -0.30786523 0.27456632 0.17403726 0.3261954
0.119986944 -0.2931678 -0.03172095 0.2153826 -0.20097832 0.33763373 -0.036311243 -0.12897432
0.30680993 0.16501282 -0.12431289 -0.11320821 0.27750537 -0.24558954 -0.061396178 -0.266381
00000000: 2320 0b3d 4bd6 23be 5691 e03d 5398 0b3e
00000010: f5a6 a2be 6acd 0abe f54a 75be 4977 90be
00000020: ddcc a93e fc65 ec3c 7d63 a1be e484 a3bd
00000030: 16be 6a3e 80d6 94be 6127 1b3e 8147 d43d
00000040: 5bf1 9abe 8809 833e 0016 4abe 9f02 4a3e
00000050: e5d5 17be 5d48 8d3e 6c45 94be c2af a73e
00000060: 8229 613e d3bb 273e 45a4 adbe 0afb b5bd
00000070: 75a0 2d3e 566e 99bd 87ae 81bd b9c9 af3c
00000080: 502b a3be e12b 58be 2f2b a53e 3f7d 663e
00000090: e160 7b3e 5697 08bd ccca 9ebd f7f3 96be
000000a0: 0008 aabd 7b26 33be 1163 eb3c 978c a6bd
000000b0: 83a0 9dbe f593 8c3e d336 323e 1503 a73e
000000c0: b7bb f53d 171a 96be d4ed 01bd 428d 5c3e
000000d0: 43cd 4dbe 54de ac3e 19bb 14bd d811 04be
000000e0: 3116 9d3e 1ff9 283e c297 febd b5d9 e7bd
000000f0: 2f15 8e3e d37b 7bbe 8f7a 7bbd 1763 88be

rnn.weight_hh_l4 f4 [8, 8]
-0.26705506 0.21987508 0.36376342 -0.27386087 0.1888516 -0.10311226 0.36903608 -0.10201567
0.33412343 -0.082782194 -0.02565989 -0.10608599 -0.1287538 -0.3485305 -0.15351038 0.18144633
-0.06886216 -0.024824297 0.03794306 0.032311615 -0.020083481 -0.06043648 -0.26254728 -0.338555
-0.18328573 -0.004719923 0.1422983 0.019124119 -0.24523297 -0.3431086 0.21810958 -0.30659708
-0.24991024 0.147596 -0.3065743 0.010812685 -0.2543477 -0.16377765 -0.09103311 -0.15915465
0.13558301 0.078305796 -0.1364634 -0.2355599 -0.13048862 0.22618997 0.3802759 -0.11799907
0.25013974 -0.31151035 -0.25718415 0.20371118 -0.10118151 -0.064212345 -0.27370283 0.14353731
-0.16459417 0.25485513 -0.26836726 -0.36274078 -0.13009185 0.17483056 -0.030887028 0.25310624
00000000: 71bb 88be ef26 613e 333f ba3e 7e37 8cbe
00000010: 5062 413e 852c d3bd 4cf2 bc3e 97ed d0bd
00000020: 3a12 ab3e b689 a9bd b134 d2bc 9d43 d9bd
00000030: 09d8 03be 9772 b2be d331 1dbe 11cd 393e
00000040: 9b07 8dbd 535c cbbc 2f6a 1b3d 2f59 043d
00000050: 1d86 a4bc 3e8c 77bd 996c 86be 1557 adbe
00000060: 41af 3bbe 95a9 9abb a5b6 113e 2faa 9c3c
00000070: 5a1e 7bbe eeab afbe 1e58 5f3e 4bfa 9cbe
00000080: 78e8 7fbe 6823 173e 4ff7 9cbe b027 313c
00000090: dd39 82be 54b5 27be 916f babd 70f9 22be
000000a0: 46d6 0a3e ca5e a03d 10bd 0bbe 9d36 71be
000000b0: cf9e 05be 589e 673e 86b3 c23e 7fa9 f1bd
000000c0: 5112 803e 497e 9fbe a4ad 83be aa99 503e
000000d0: 4038 cfbd c381 83bd c722 8cbe 72fb 123e
000000e0: 608b 28be 5f7c 823e 6f67 89be 29b9 b9be
000000f0: cc36 05be c806 333e cb06 fdbc 2497 813e

rnn.bias_ih_l4 f4 [8]
0.12786074 -0.1215522 0.33285245 -0.06882599 0.14206715 0.25689173 -0.0062411847 -0.25551656
00000000: eded 023e 5cf0 f8bd a36b aa3e a4f4 8cbd
00000010: 0d7a 113e 5087 833e da82 ccbb 11d3 82be

rnn.bias_hh_l4 f4 [8]
0.11077451 -0.059369083 -0.058708593 0.1122185 -0.15262592 0.22651318 0.15380609 0.269305
00000000: bfdd e23d ff2c 73bd 6c78 70bd d0d2 e53d
00000010: f849 1cbe 12f3 673e 587f 1d3e 58e2 893e

fc1.weight f4 [64, 240]
0.001836965 0.023147162 0.008916497 0.029758822 -0.05500027 0.02984212 -0.017946573 -0.0139894
-0.08121018 0.0062232097 0.024096679 -0.04909642 0.07047158 -0.039075695 0.029560452 -0.026778458
-0.05815681 0.0065524424 0.019732261 0.011706899 0.024890838 0.024839494 0.08735072 0.004964202
0.024433462 -0.01314139 -0.06980892 -0.031123992 0.054101545 0.05744585 0.006701097 0.044508193
0.016050143 0.024862869 -0.028553281 -0.017832777 0.010592899 0.016731845 0.08850276 0.020547891
-0.005263454 -0.027051734 -0.02083536 -0.033204105 0.048057027 0.05799812 -0.06694184 -0.011411789
-0.008302822 0.060282677 -0.030997606 -0.030598156 0.02643081 0.04832469 0.07082011 -0.010729884
0.04105391 -0.03681695 -0.052444506 0.041704826 -0.03145256 -0.003083426 0.00037094904 -0.005258485
-0.044082567 0.0858273 -0.050101656 -0.0149193965 -0.05476661 0.032977786 0.07327322 -0.059202526
0.059609354 0.02106382 -0.04842074 0.044069823 0.025283884 0.05889229 -0.0038948148 0.040456537
-0.03591099 0.03824307 -0.0151006635 0.013350901 0.023928512 0.024150942 0.07886268 -0.041083604
0.094807446 0.02657911 -0.038031448 0.0354408 -0.033677 -0.021592269 -0.058648966 -0.027118655
-0.09582754 0.053155776 -0.02848351 -0.07636142 -0.021945188 0.051064465 0.07853077 -0.023528256
-0.016801605 0.044344004 0.047392916 0.030239303 0.062028166 -0.027816193 0.02906032 0.023427019
-0.018273478 -0.018434826 -0.028636662 -0.0105069745 -0.0125915 -0.0072193197 0.024812093 -0.0021871252
0.042261757 0.030621327 -0.053733498 -0.06397265 0.01639373 -0.052628018 0.024390578 -0.008310288
-0.015493772 0.018747348 0.048230056 -0.050676677 -0.026372809 0.0375611 -0.04647243 -0.06802076
0.057096854 0.0076534534 0.014919074 0.025185151 -0.028730636 0.02078577 -0.01371976 -0.027058275
0.017297024 0.055206113 -0.052188795 -0.019261818 0.011904036 0.0072261835 -0.036892515 -0.0770568
-0.052677523 -0.007053376 -0.042243067 -0.0665729 -0.06290558 -0.023530079 0.062637724 0.047436316
0.015927013 0.052982263 0.071490325 -0.051831767 -0.03914417 -0.025019035 -0.0637793 0.042157743
0.0022126317 -0.02854458 -0.028117038 0.0608402 -0.08667628 0.010523896 -0.046565365 -0.038953755
0.043205943 -0.0042195907 -0.03280006 0.045056116 -0.009279227 -0.0155818 -0.023789203 -0.076279394
-0.022275684 0.075953044 0.09399367 -0.014358668 -0.039461978 -0.056464512 -0.05929791 -0.07914565
-0.03828566 0.034136098 -0.03289784 0.031587064 -0.054086085 0.035906315 -0.05538986 -0.015679117
-0.07673292 0.026496513 0.027797991 0.059619892 -0.038808275 -0.029381478 0.04049723 0.005842704
-0.0807407 0.045980435 0.047314808 -0.0012984076 -0.028197914 0.021734107 0.0022790132 -0.054423764
-0.06074915 -0.016932929 0.041077465 0.01746358 -0.06090271 0.04097027 -0.056994032 0.037949253
-0.0013889576 0.026459496 0.031707156 0.030707708 -0.08251129 -0.036810074 -0.004732104 0.021640325
0.0008496438 0.051448867 -0.0062302034 0.008703851 -0.11414837 -0.086729206 0.028796388 -0.066405125
-0.010156008 -0.014435685 -0.031822987 0.0560249 -0.043950833 -0.056147903 0.0121724885 0.0055816406
0.021180918 -0.039867215 -0.03696619 -0.041284353 0.031197155 -0.0326737 -0.011991965 0.056292184
00000000: 51c6 f03a 1e9f bd3c 8016 123c c6c8 f33c
00000010: f747 61bd 7677 f43c b104 93bc cc33 65bc
00000020: 8651 a6bd 11ec cb3b 6666 c53c 5419 49bd
00000030: 6753 903d d60d 20bd c328 f23c 7f5e dbbc
00000040: d635 6ebd dfb5 d63b 8da5 a13c 4bce 3f3c
00000050: dfe7 cb3c 327c cb3c efe4 b23d bfaa a23b
00000060: af28 c83c fc4e 57bc fbf7 8ebd bef7 febc
00000070: 9599 5d3d 574c 6b3d e094 db3b 394e 363d
00000080: 977b 833c 37ad cb3c 92e8 e9bc 0b16 92bc
00000090: d78d 2d3c 3911 893c ef40 b53d 0d54 a83c
000000a0: 0d79 acbb 999b ddbc ebae aabc 0701 08bd
000000b0: 72d7 443d 708f 6d3d ce18 89bd 83f8 3abc
000000c0: 8f08 08bc f8ea 763d b1ee fdbc fca8 fabc
000000d0: 6d85 d83c 1cf0 453d 220a 913d 65cc 2fbc
000000e0: 2528 283d 5fcd 16bd 0dd0 56bd aed2 2a3d
000000f0: 66d4 00bd 4e13 4abb f07b c239 5f4f acbb
00000100: ec8f 34bd 39c6 af3d 6537 4dbd 7c70 74bc
00000110: f452 60bd b713 073d 4510 963d 597e 72bd
00000120: f028 743d 088e ac3c d354 46bd 8f82 343d
00000130: 2620 cf3c 0b39 713d 2640 7fbb c1b5 253d
00000140: 6717 13bd c4a4 1c3d c668 77bc bdbd 5a3c
00000150: ba05 c43c 32d8 c53c c282 a13d 4847 28bd
00000160: 682a c23d 6fbc d93c ddc6 1bbd 5f2a 113d
00000170: e5f0 09bd 45e2 b0bc e639 70bd f127 debc
00000180: 3b41 c4bd dfb9 593d 4056 e9bc 6063 9cbd
00000190: 65c6 b3bc f928 513d bed4 a03d 54be c0bc
000001a0: 85a3 89bc 0fa2 353d 131f 423d 6ab8 f73c
000001b0: 3f11 7e3d c9de e3bc e90f ee3c 05ea bf3c
000001c0: 43b2 95bc a204 97bc 6f97 eabc 7225 2cbc
000001d0: 944c 4ebc 0b90 ecbb bb42 cb3c df55 0fbb
000001e0: aa1a 2d3d 94d9 fa3c a817 5cbd 1804 83bd
000001f0: 254c 863c 7a90 57bd c0ce c73c e027 08bc
00000200: 97d9 7dbc 0a94 993c e18c 453d 5992 4fbd
00000210: ca0b d8bc abd9 193d e059 3ebd 784e 8bbd
00000220: 64de 693d d2c9 fa3b 226f 743c 1751 ce3c
00000230: 835c ebbc eb46 aa3c d8c8 60bc 51a9 ddbc
00000240: 7db2 8d3c ce1f 623d ebc3 55bd f6ca 9dbc
00000250: 2509 433c 9fc9 ec3b 9b1c 17bd f5cf 9dbd
00000260: 63c4 57bd 0220 e7bb 1107 2dbd 5f57 88bd
00000270: a4d4 80bd 27c2 c0bc 3548 803d 954c 423d
00000280: 5e79 823c ee03 593d 8569 923d 8c4d 54bd
00000290: a355 20bd b8f4 ccbc b99e 82bd 99ad 2c3d
000002a0: cd01 113b 53d6 e9bc b455 e6bc 9333 793d
000002b0: 5583 b1bd 6b6c 2c3c 53bb 3ebd f98d 1fbd
000002c0: b7f8 303d 7e44 8abb 5b59 06bd c38c 383d
000002d0: e607 18bc ce4a 7fbc 93e1 c2bc 5f38 9cbd
000002e0: 7f7b b6bc 458d 9b3d c17f c03d 9e40 6bbc
000002f0: e2a2 21bd 5547 67bd 5ee2 72bd 1d17 a2bd
00000300: 6dd1 1cbd 4bd2 0b3d e3bf 06bd 7061 013d
00000310: 5f89 5dbd 8012 133d 7ae0 62bd 7e71 80bc
00000320: 2626 9dbd 370f d93c 9db8 e33c fd33 743d
00000330: 6df5 1ebd 6db1 f0bc 6ce0 253d 2774 bf3b
00000340: 615b a5bd fb55 3c3d 2ccd 413d 542f aaba
00000350: 50ff e6bc ba0b b23c 7f5b 153b 74eb 5ebd
00000360: 1ad4 78bd edb6 8abc d840 283d c80f 8f3c
00000370: 1f75 79bd 71d0 273d 9372 69bd ad70 1b3d
00000380: af0d b6ba 96c1 d83c 5ddf 013d bb8e fb3c
00000390: aefb a8bd 29c6 16bd c40f 9bbb 0d47 b13c
000003a0: a1ba 5e3a 0cbc 523d bc26 ccbb 999a 0e3c
000003b0: 9fc6 e9bd 159f b1bd 67e6 eb3c 69ff 87bd
000003c0: 6365 26bc a783 6cbc d258 02bd 5e7a 653d
000003d0: ca05 34bd 58fb 65bd 1e6f 473c 32e6 b63b
000003e0: 9b83 ad3c ce4b 23bd dc69 17bd c819 29bd
000003f0: 2d91 ff3c dcd4 05bd f279 44bc a292 663d

fc1.bias f4 [64]
-0.0364092 -0.026965726 0.057250436 -0.006202735 0.026835542 0.03361194 -0.021599473 -0.001973246
0.035604864 -0.051445443 0.029055247 0.0016174891 -0.027684301 -0.024036372 -0.055425644 0.0724824
-0.0530808 -0.022844583 0.050173752 0.030236792 -0.0594946 0.038050395 -0.047657024 -0.021322139
0.022941615 0.0061016167 -0.0052588508 0.045273528 -0.040267248 -0.0037588961 0.03508285 -0.054646462
-0.022435628 0.052175786 0.03371854 0.08098255 -0.084848255 -0.020122742 0.016872073 0.055632833
0.038340315 -0.008742275 0.028488662 -0.08209828 -0.04208735 -0.03978458 -0.030464752 0.064165674
0.009397487 0.031815402 0.030694017 -0.0125220595 0.016932013 -0.03898809 0.072001904 -0.02765157
-0.03955658 0.005425601 -0.05096194 0.02655813 -0.064553514 -0.051125757 0.07281148 -0.00434298
00000000: d021 15bd 3ae7 dcbc 6f7f 6a3d 5040 cbbb
00000010: 36d6 db3c acac 093d 61f1 b0bc 9351 01bb
00000020: 68d6 113d 75b8 52bd 4505 ee3c ee01 d43a
00000030: 30ca e2bc ede7 c4bc 0006 63bd a771 943d
00000040: 416b 59bd 9024 bbbc fe82 4d3d 26b3 f73c
00000050: 9cb0 73bd bbda 1b3d 0334 43bd c4ab aebc
00000060: 0ef0 bb3c 12f0 c73b 7052 acbb bc70 393d
00000070: 45ef 24bd d057 76bb 09b3 0f3d f8d4 5fbd
00000080: ecca b7bc 47b6 553d 741c 0a3d 2eda a53d
00000090: ecc4 adbd 73d8 a4bc 4d37 8a3c 41df 633d
000000a0: bc0a 1d3d c23b 0fbc 0e61 e93c 2523 a8bd
000000b0: c963 2cbd 28f5 22bd 3791 f9bc 4b69 833d
000000c0: ebf7 193c de50 023d 0572 fb3c 5329 4dbc
000000d0: 01b5 8a3c fab1 1fbd bc75 933d 8c85 e2bc
000000e0: 1506 22bd 3dc9 b13b 78bd 50bd 6f90 d93c
000000f0: a234 84bd 3e69 51bd 2f1e 953d 8f4f 8ebb

fc2.weight f4 [1, 64]
-0.06939716 9.86026e-05 0.045468934 6.1194965e-05 7.14187e-05 -0.017501554 -0.00016412917 0.04306464
0.00029589413 9.806949e-05 0.07355162 -0.06128296 -0.0001834492 -0.0005602434 -0.034357198 0.06782808
-0.0006414575 -0.050300766 -9.115055e-05 -0.00082598004 -0.06721756 0.018020902 0.00068895414 -0.00012085599
0.0024184727 -0.0005375197 0.009268636 -0.062987775 -0.032691 -0.0004946341 7.361235e-05 -0.00067224115
-0.04141645 0.00044457155 0.096246876 0.06498321 -0.069284864 -0.00026661297 -0.020065222 -0.0005564028
0.025030946 0.03826065 0.00017163965 -0.037817594 0.03381199 0.00023583193 0.0669151 0.055594478
-0.0003401987 -0.00014275062 -0.0056669037 -0.0004055238 0.00040718284 0.00037137078 0.060668148 -0.023883572
-0.00018612083 -0.00042601052 0.021186946 0.00017918601 -0.0005026955 -0.10229676 0.092326336 0.045072906
00000000: 1920 8ebd dec8 ce38 a23d 3a3d cc55 8038
00000010: 9fc6 9538 6b5f 8fbc 171a 2cb9 8c64 303d
00000020: 3d22 9b39 a8aa cd38 3ba2 963d d703 7bbd
00000030: 455c 40b9 4cdd 12ba 22ba 0cbd 73e9 8a3d
00000040: 7c27 28ba 2d08 4ebd 1428 bfb8 9586 58ba
00000050: 5ca9 89bd 92a0 933c ee9a 343a 1174 fdb8
00000060: 3d7f 1e3b 56e8 0cba 7adb 173c bcff 80bd
00000070: ffe6 05bd 55aa 01ba 5460 9a38 5739 30ba
00000080: 4ca4 29bd 6215 e939 151d c53d eb15 853d
00000090: 39e5 8dbd 30c8 8bb9 d25f a4bc 8fdb 11ba
000000a0: b30d cd3c 33b7 1c3d 2bfa 3339 9fe6 1abd
000000b0: 717e 0a3d a749 7739 c90a 893d 09b7 633d
000000c0: b25c b2b9 54af 15b9 6fb1 b9bb 7c9c d4b9
000000d0: 287b d539 8bb4 c239 2a7f 783d 7ba7 c3bc
000000e0: 6e29 43b9 2a5a dfb9 3f90 ad3c e1e3 3b39
000000f0: 53c7 03ba f780 d1bd 9715 bd3d 5e9e 383d
